M=8/Dec_M=8_SNR=8.pth (torch, 1951 bytes, 4 tensors)

decoder.0.weight f4 [8, 2]
000000 e1 0c 3f 3f 05 b9 a6 3f 08 5e c9 3f bc 2d dc be
       0.74629027 1.3025213 1.5731821 -0.43003643
000010 32 b0 1a be f6 c4 ae bf 2d 5b a1 be f0 5f a2 3f
       -0.15106276 -1.3653858 -0.31514874 1.2685528
000020 07 dd 6e 3e e0 43 b2 bf 25 1e b4 3f c9 de e6 bd
       0.23326503 -1.3926964 1.4071699 -0.11272962
000030 b5 fc 88 bf 73 36 78 bf 90 d0 f4 bf 12 d0 43 3f
       -1.070212 -0.9695808 -1.9126148 0.76489365

decoder.0.bias f4 [8]
000000 fe 06 13 3f 90 f8 55 3f 07 98 62 3f 5c 88 89 3f
       0.57432544 0.835824 0.88513225 1.0744739
000010 98 3a 59 3f 7f 0b b3 3f ec d6 45 3f 53 ce cf 3f
       0.8485503 1.3987883 0.7728107 1.623484

decoder.2.weight f4 [8, 8]
000000 5c 58 a3 3f 1d af 8c bf f6 36 3c bf 44 97 61 3f
       1.276134 -1.099094 -0.73521364 0.8812144
000010 ba 11 55 bf ce 01 f3 bd f7 ea 8d bf cd fb 85 3d
       -0.83230174 -0.118655786 -1.108733 0.06542168
000020 e4 28 dc bc 9f 03 a3 3f bd 1a 30 bf bd e1 11 bf
       -0.026874967 1.273548 -0.687908 -0.56985074
000030 cf d9 fc be dd 99 26 3f de 85 85 bf 01 0c 93 bf
       -0.49384925 0.65078527 -1.0431478 -1.1488038
000040 28 ae 7b bf 7a 55 85 bf 06 ff e6 3e c6 95 82 bf
       -0.98312616 -1.041671 0.45116442 -1.0201957
000050 27 cd 76 3f ba 82 51 bf c7 eb 7d 3f c1 b6 0d 3e
       0.9640679 -0.818401 0.9918789 0.13839246
000060 34 01 75 bf 44 04 1c bf 10 c7 90 3f ea 80 81 bf
       -0.9570496 -0.6094401 1.1310749 -1.0117466
000070 7b 19 a0 3f 7b ad 59 be eb 4a 12 3e 09 4e 82 bf
       1.2507776 -0.21257584 0.14286391 -1.0180064
000080 06 b8 6a bf 3e 62 83 bf e6 66 5e 3d 23 60 40 bf
       -0.9168705 -1.0264356 0.05429735 -0.75146693
000090 39 57 4b bf 00 f6 5a bf 10 88 33 3f 91 82 91 3f
       -0.79429966 -0.85531616 0.7012949 1.1367971
0000a0 4b db 72 bf 77 a6 15 3f 96 0f 06 3f 55 d6 89 bf
       -0.94865865 0.5845713 0.5236753 -1.0768534
0000b0 20 95 08 3f 01 c3 1a 3f 55 60 6b bf ec 84 9c bf
       0.53352547 0.604538 -0.91943866 -1.2228065
0000c0 b4 6b 1f bf 7e 1d 84 bf c8 39 24 bf 59 22 22 3f
       -0.62273717 -1.03215 -0.6415067 0.6333366
0000d0 9c a7 54 bf 36 64 5c bf 6c fa 77 bf b3 00 8e 3f
       -0.8306825 -0.8609041 -0.9686649 1.1093963
0000e0 25 a6 8f 3f 3e 3f 96 3d 75 7e a8 be f3 b7 50 3f
       1.1222578 0.07336281 -0.3290898 0.81530684
0000f0 46 84 92 bf b4 06 ef 3e 0d aa 9d bf e2 4d 81 bf
       -1.1446617 0.46684802 -1.231752 -1.0101893

decoder.2.bias f4 [8]
000000 92 cd d0 be 31 73 ea 3e c4 54 d6 be f2 f8 06 3d
       -0.40781838 0.4579101 -0.41861546 0.032952257
000010 9d ac 61 be 66 8b 58 3e c7 82 cb 3d 6b 61 a1 be
       -0.22038503 0.21146926 0.09937053 -0.31519637
