M=8/Enc_M=8_SNR=8.pth (torch, 1951 bytes, 4 tensors)

encoder.0.weight f4 [8, 8]
000000 7b c0 0c bd c7 59 28 3e b1 fc 94 be 1d 38 85 be
       -0.03436325 0.16440497 -0.29099038 -0.26019374
000010 7e 48 32 be 56 92 88 3e 86 c2 1f be 29 08 a3 3d
       -0.17410466 0.26674145 -0.15601549 0.07960541
000020 09 36 45 3d 57 0c 0f 3e 5c d3 da bd 2c 10 cc bd
       0.048147235 0.13969551 -0.10684845 -0.09964022
000030 c2 ef ac be 90 c5 6f be 9f 3d 15 be c6 78 28 3e
       -0.3377667 -0.23415208 -0.14574288 0.16452321
000040 dd ed 6c 3e f7 97 82 3e de 70 75 be 86 a7 1d be
       0.23137613 0.25506565 -0.23968837 -0.15395936
000050 87 fc 35 3e f5 f7 55 3e e8 03 95 bd 17 b0 e7 3e
       0.17772113 0.2089537 -0.07276136 0.45251533
000060 e7 b3 0b bd 37 dd f3 3d df 89 68 3e 20 ed a7 be
       -0.034107115 0.11907428 0.22708844 -0.327981
000070 c5 ea 63 be 71 49 ed bd 66 1f 0d be 63 6b 7a 3e
       -0.22257526 -0.115862735 -0.13781509 0.24455027
000080 ca 42 26 be a3 89 01 be cf 40 9f be 20 89 a9 be
       -0.16236416 -0.1265016 -0.31104133 -0.3311243
000090 81 9f de bd 53 74 52 3e b0 24 0c 3f 78 89 ab 3e
       -0.10870267 0.20552187 0.5474348 0.33503318
0000a0 e6 ff 17 3c 88 d5 af be 36 e2 0b 3e 64 c6 db be
       0.00927732 -0.343426 0.13660511 -0.42924798
0000b0 08 0d 93 bd 25 19 2d be 47 8c 22 3e 33 39 48 3e
       -0.0718022 -0.16904123 0.15873824 0.1955307
0000c0 f6 8f 20 be 00 03 51 bc cb 18 a3 3e a8 06 05 3f
       -0.15679917 -0.012757063 0.31854853 0.5196328
0000d0 82 71 63 3e a8 a2 43 3d 66 48 d0 3d 52 2b 55 be
       0.22211269 0.047762543 0.10170059 -0.20817307
0000e0 67 2c ef 3d 65 58 8c be 8a ec 7a be f2 05 3b be
       0.11678391 -0.2741119 -0.24504295 -0.18263987
0000f0 12 f2 45 3e 74 aa 61 3e 5b 74 56 be 37 0b be 3d
       0.19330624 0.22037679 -0.20942824 0.09279483

encoder.0.bias f4 [8]
000000 a6 c4 1d 3e fb e2 bf 3d 83 86 fd 3c d5 a1 ec 3c
       0.15407047 0.09369465 0.03094793 0.028885761
000010 79 ed 9c 3e 81 81 ed 3e 71 1e 0f be 6a d6 6c bd
       0.30649927 0.46387866 -0.13976456 -0.05782167

encoder.2.weight f4 [2, 8]
000000 4e 25 63 3e 7d 97 c3 3e 26 17 93 3e 55 2a b1 3e
       0.221822 0.38201514 0.28728598 0.3460261
000010 50 1d eb 3d 91 59 b4 be c6 d4 ee 3c 56 2b b3 be
       0.114802 -0.35224584 0.029154193 -0.34994
000020 58 ca 86 be 7e 8c 05 3f ed 3e ae 3e 58 5a 60 be
       -0.2632625 0.521675 0.34032384 -0.21909463
000030 19 a8 1c 3e db c5 30 3e a8 37 26 be 80 ca 2d be
       0.15298499 0.17262976 -0.16232169 -0.16971779

encoder.2.bias f4 [2]
000000 ac 79 26 3c 86 a4 0b be
       0.010160845 -0.1363698
