M=16/Dec_M=16_SNR=10.pth (torch, 2847 bytes, 4 tensors)

decoder.0.weight f4 [16, 2]
00000000: 4db9 073e da05 a13f 06d3 433f 682d 7abf
00000010: fd43 c1bf c4b5 d2bd 9c6b b33c 6acc 9fbf
00000020: 7f42 ac3e 8370 bb3f 9c39 5dbf ae83 14be
00000030: 1360 9f3f f518 483f a2fc 27bf 98a0 6c3f
00000040: aa22 aabf 3b2a 4e3f 6e50 873f c412 a63f
00000050: b161 ae3f ef70 15bf 5cfe 853f dc75 a9bf
00000060: 170d b6bf 866a d0bf e527 9a3f b250 ae3f
00000070: 6593 9abf d1c3 b23f 161d ba3f 438a 49bd
0.1325428 1.2579911 0.7649387 -0.97725534 -1.5098873 -0.10288575 0.021901898 -1.2484257
0.33644482 1.4643711 -0.8641603 -0.14503357 1.2451195 0.7816308 -0.6561986 0.92432547
-1.3291829 0.8053319 1.057142 1.2974477 1.3623563 -0.5837545 1.0468249 -1.3239093
-1.4222745 -1.6282508 1.2043425 1.3618376 -1.2076231 1.3966008 1.4540126 -0.049204122

decoder.0.bias f4 [16]
00000000: abf1 6f3f 621d bf3f 6da8 273f 4f60 2a3f
00000010: 2492 3c3f abff 963f ce05 ee3e 8ba1 5b3f
00000020: 881b 843f c8bd 363f 34b8 f63e 190b 6f3f
00000030: 8346 263f d625 853f 7fb7 2f3f 0f72 6e3f
0.9372813 1.4930842 0.6549137 0.66553205 0.7366049 1.1796774 0.46488804 0.8579337
1.0320902 0.71383333 0.4818741 0.9337631 0.6495134 1.0402172 0.6863937 0.9314279

decoder.2.weight f4 [16, 16]
00000000: 4533 1dbf 094b 2d3f 16a6 11bf 51cf 6e3f
00000010: b385 41bf 1b33 f13e fce4 9dbf dbd3 03bf
00000020: eaba 39bf 11c5 b7be 1656 e3be ca42 423f
00000030: c63d 403f cf9e 5cbf 496a 89bf 2552 dabe
00000040: 2ca7 77bf 93c9 f83d 3295 013f 5999 20be
00000050: 2dee 75bf 0c3e 053f b152 74bf 97c1 963e
00000060: 7a97 353f 3930 28bf d698 9cbf a7d3 17bf
00000070: 0b28 6f3f 8efa 10bf ee9b 4a3e 013e 33bf
00000080: dbbd 8bbe 5118 043f 93d2 1ebf fd97 5e3e
00000090: 375b 59be 3423 51bf 8eb6 bd3e 7700 6bbf
000000a0: e5e3 41bf 531b 8e3e 1cba 453f cf7a cb3e
000000b0: d015 8bbf 7bb2 053f 1844 72bf 4f1f d83e
000000c0: eabe d03e 4505 3dbf 43c0 e13e 246d a0bf
000000d0: 54b9 2d3f a6bd d53e 94bb 91bf 580a 473f
000000e0: b435 cf3e 4dcb 2c3d daef 57bf 6984 1dbf
000000f0: 584a 27bf 9d8b 22be 8c3c 193f 0133 3cbf
00000100: e085 32bf 85d5 673f 0717 6cbf 0f35 2b3f
00000110: 8169 20bf 450a e8be 58c5 80bf 3d28 66bf
00000120: dd47 39bf 8dde 68bf 6da0 393f 5377 453f
00000130: 4146 19bf 5f46 46bd 01e0 23bf 2746 1b3f
00000140: a0fd 963e 4481 c13d e1f8 3abf b9a9 6fbf
00000150: 37df 103f a5da 38bf 38a2 083f a86d 37bf
00000160: 803b 2dbf fccc 2a3f 80c0 b73e 6f0b ad3e
00000170: 2518 53bf f09e 0e3f 33d1 83bf 8b4e 693e
00000180: 37ba f9bd 8a09 c5be 9d96 503f 8446 32bf
00000190: 268b 3abf 5443 3c3f c87a 89bf b486 233f
000001a0: 8dd8 9f3e 1b1d 3abf aeaf 8bbf 6c3c 47bf
000001b0: 434d b13e 5f9e 3abf ec8f 293f a399 dfbe
000001c0: d832 243f 47d2 7ebf 2b56 6cbe c267 88bf
000001d0: f31a 2c3f ea12 363e bbcf 15bf ecd0 133f
000001e0: dc43 dc3e 2514 7e3e ceb9 8ebf 640f 01bf
000001f0: 3d78 5cbf fbed ee3e 0ed0 ca3e 0c25 2fbf
00000200: 8654 62bf 45fd 0c3f a7aa 8b3e 0573 323f
00000210: 72cc 0cbf 1fe5 143f 52c2 99bf 33ac 36bf
00000220: b323 0abe 8b88 07bf cd9f 3dbf d3c1 b23e
00000230: 4b86 693f f638 44bf b1da 7dbf b7ff 59bf
00000240: e975 193f cab7 6bbe d08a 83bf 0b04 68bf
00000250: 956c 203f c55c aabe e628 663f 26af 91be
00000260: cc25 04bf a199 2a3f 2170 7c3d 784a 06bf
00000270: 9c20 2ebf 8137 1c3f e6f7 86bf 8df0 963e
00000280: f8e2 843e 9054 16bf 64a6 d93e af67 9abf
00000290: 1542 ae3d 4bd5 ec3e 752e 97bf 9172 263f
000002a0: 8fbd 2c3f a491 3fbf 4b5a 49bf bb06 33bf
000002b0: 4796 893c 4355 f3be 2ecd 413f d894 24bf
000002c0: c02a 22bf 2ef0 683f 82c6 93bf f860 1c3f
000002d0: 39ed 73bf b85f 93bd 432f 60bf b1d9 2ebf
000002e0: 12e0 4ebf b2c8 15bf 9339 0f3e ec4a 433f
000002f0: 4814 dd3e 7c72 37bf a956 3bbf bfdf a03e
00000300: 175b 82bf b5af 3c3e e8a7 163f 69d5 303f
00000310: fdd6 83bf 8620 a73e aea1 34bf c711 fcbd
00000320: 3bde e53e 2958 21bf de6b 99bf db0b 1abe
00000330: c7cb 7e3f 8f2a f6be 3e91 09bf 9403 57bf
00000340: d3f1 eb3e d2b7 1bbf 44da 5dbf af49 39bf
00000350: 50b3 eb3e a4ed bbbe 3036 933e fa1d 1c3f
00000360: 56d5 a83e 54d6 243f 4f43 6ebf d1d2 58bf
00000370: 6290 63bf fd00 1b3f b834 a23e 8493 14be
00000380: b59a afbe a997 2f3f 8138 59bf 68ed e53d
00000390: af3c 1ebf a489 a4be 2d75 b03e 4bf9 7ebf
000003a0: 940e 16bf b9f6 7cbb 2a9e 6a3f 329d 403f
000003b0: c811 62bf c4d1 b4bd f1de 91bf 5ef7 163f
000003c0: ba7a 343f f51a d3be a61d 87bf c2c6 68bf
000003d0: f732 513f 0d28 b3be c794 da3e 2ca8 2f3e
000003e0: c44f c8be c825 5c3f 6a3d 37bf 6a40 4bbf
000003f0: 5872 19bf 3aa2 d13e 21cc efbd 9bf1 bc3e
-0.61406356 0.6769262 -0.5689405 0.9328509 -0.75594634 0.47109303 -1.2335505 -0.5149514
-0.72550833 -0.35892537 -0.44401616 0.7588316 0.7509426 -0.8617982 -1.0735561 -0.42640796
-0.9673946 0.12147822 0.5061828 -0.15683497 -0.9606655 0.520478 -0.9543868 0.29444572
0.7093426 -0.6569858 -1.2234142 -0.5930733 0.93420476 -0.56632316 0.19786045 -0.70016485
-0.27293286 0.51599604 -0.6204006 0.21737666 -0.21226202 -0.8169434 0.3705334 -0.91797584
-0.75738364 0.27755222 0.77237105 0.39742133 -1.0866032 0.52225465 -0.9463515 0.42211387
0.40770656 -0.73836166 0.44091997 -1.2533307 0.67860913 0.41746253 -1.1385369 0.7775016
0.4047066 0.04218607 -0.8435036 -0.61530167 -0.65347815 -0.1587357 0.5985801 -0.73515326
-0.6973553 0.9056018 -0.92222637 0.66877836 -0.62660986 -0.45320335 -1.0060225 -0.8990515
-0.7237528 -0.90964586 0.72510415 0.771352 -0.59872824 -0.048406955 -0.6401368 0.6065392
0.29490376 0.094484836 -0.7303601 -0.9361835 0.565906 -0.72208625 0.53372526 -0.716517
-0.67668915 0.6671903 0.35889053 0.33797786 -0.82458717 0.5571127 -1.0298218 0.22783868
-0.12193721 -0.3848384 0.8147982 -0.6963885 -0.72868574 0.73540235 -1.0740595 0.63877416
0.31219903 -0.7270066 -1.0912988 -0.7782657 0.3462926 -0.72897905 0.6623523 -0.43671903
0.6414008 -0.9953961 -0.23079745 -1.0656664 0.6722862 0.17780653 -0.58520097 0.57740664
0.43020523 0.24812372 -1.1150453 -0.5041411 -0.8612097 0.4666594 0.39611858 -0.68415904
-0.8841022 0.5507396 0.27278635 0.69706756 -0.5499946 0.5816211 -1.2012427 -0.71356505
-0.1349018 -0.52942723 -0.7407196 0.349135 0.9122054 -0.76649415 -0.9916182 -0.85155815
0.5994554 -0.23019329 -1.0276737 -0.9063117 0.62665683 -0.33273903 0.89906156 -0.2845394
-0.51620173 0.6664067 0.061630372 -0.5245738 -0.6801851 0.6102219 -1.0544403 0.294804
0.25954413 -0.5872278 0.42509758 -1.2062892 0.08508698 0.4625648 -1.1811053 0.65018564
0.67476743 -0.74831605 -0.786534 -0.69932145 0.01679529 -0.47525987 0.75703704 -0.6428962
-0.6334648 0.90991485 -1.1544955 0.6108546 -0.9528385 -0.07195991 -0.87572116 -0.6830092
-0.80810654 -0.5850936 0.13986807 0.76286197 0.43179536 -0.71659064 -0.7317911 0.31420705
-1.0184048 0.18426402 0.58849955 0.6907564 -1.0299984 0.32642 -0.70559204 -0.12308078
0.4489611 -0.63025147 -1.1986043 -0.15043585 0.9952969 -0.48079345 -0.53737247 -0.83989835
0.46082935 -0.6082736 -0.8666117 -0.7237806 0.46035242 -0.36704743 0.2875228 0.6098324
0.32975262 0.6438954 -0.93071455 -0.8469668 -0.88892186 0.60548383 0.31680846 -0.14509398
-0.3429772 0.6859079 -0.84851843 0.11226922 -0.61811346 -0.3213626 0.34464398 -0.9959914
-0.58615994 -0.0038599207 0.9164759 0.7523986 -0.8830838 -0.08829072 -1.1396161 0.589712
0.70499766 -0.41231504 -1.0555923 -0.9092828 0.8171839 -0.34991494 0.42691633 0.17153996
-0.39123356 0.8599515 -0.71578085 -0.79395163 -0.599401 0.40944082 -0.117088564 0.3690308

decoder.2.bias f4 [16]
00000000: d5e2 eb3e d073 163e a3af 52be 505f d0be
00000010: a2c3 033f 45b9 48be 9873 5b3e 76a8 a2be
00000020: fbc3 063f 49a4 9ebe 956f 493d 7db0 163f
00000030: 7367 e53e 7923 29bf 923b c7be 38ea 11bf
0.46071497 0.14692616 -0.20574813 -0.40697718 0.51470387 -0.19601925 0.21430814 -0.3176915
0.5264279 -0.30984715 0.04917868 0.5886305 0.44805488 -0.6606975 -0.38912636 -0.56998014
