M=16/Enc_M=16_SNR=10.pth (torch, 2783 bytes, 4 tensors)

encoder.0.weight f4 [16, 16]
-0.001871705 0.1341109 -0.20576128 -0.18398476 -0.09628859 0.06703934 -0.004953295 0.19822237
-0.022186011 0.06615314 -0.07555327 -0.049141347 -0.23883712 -0.16557053 -0.103055775 0.009260893
0.017425088 0.16454293 -0.15814862 0.042802867 0.054844193 0.20242369 -0.09831157 0.32732046
-0.16366437 0.20113915 0.1847724 -0.23191759 -0.19336075 0.064694464 -0.19229482 0.36324933
-0.16204491 -0.11508322 -0.17466012 -0.23414025 -0.14593512 0.1672557 0.11155459 0.14186071
0.013147891 -0.12817088 0.04229617 -0.23342368 -0.18064156 -0.1288825 0.1591215 0.12159259
-0.11087376 -0.009020597 0.09093064 0.27177346 0.09573802 0.033773214 0.27126625 -0.14720058
0.046586007 -0.19382638 -0.17327154 -0.12914589 0.09336663 0.09215523 -0.14808813 0.075526774
0.08791783 -0.03155434 0.009545386 0.057926178 0.16537705 0.36373553 -0.19265589 -0.091617435
0.088725016 0.31455195 0.17636016 0.24171427 0.049753636 -0.21739566 0.022998124 -0.15640134
-0.23298854 0.32658342 0.025172362 -0.24938199 0.006573468 -0.110558175 0.15261184 -0.04177753
0.16132109 -0.11652033 0.14694616 0.08826614 0.08212628 0.11593457 -0.24743381 -0.13522597
0.10266751 0.10418457 -0.11025017 0.015313636 0.14160885 0.08642147 -0.11626939 0.1990057
-0.23814952 0.121489294 -0.22389601 -0.22277525 -0.14198408 0.10279184 -0.22735493 0.2187227
-0.18210883 0.11546133 0.1977064 -0.21082073 0.008718734 0.101944 -0.065250136 -0.07529488
0.026490636 -0.10716551 -0.16933627 0.1626502 -0.23981223 -0.17237617 0.054130007 -0.131122
-0.17492047 -0.20490542 0.10790777 0.21659584 -0.17631724 0.018560708 0.14235058 0.12568103
-0.067967266 0.14866224 0.056425925 0.075228386 0.1309955 0.29694209 0.12173263 0.12858976
-0.22458038 -0.118519306 0.09464065 -0.0016206205 -0.12426159 -0.19157794 -0.23396301 -0.21100205
-0.050709188 0.08888834 0.17313868 -0.24110797 0.303851 -0.19562736 -0.05285257 -0.10136816
-0.048153818 -0.049085677 -0.22433749 -0.21585947 -0.03911987 0.0032330453 -0.11356872 0.17928821
-0.2250146 -0.01687181 0.32964584 -0.101973 0.1403522 0.13529253 -0.22561523 0.17380443
-0.088429675 -0.11160171 0.32216445 -0.2020238 0.04680259 0.011757488 0.057584487 0.050105058
0.045769565 0.13238579 -0.08835912 -0.022574587 -0.20602036 0.12844129 0.18586287 0.2210485
-0.19631639 -0.11776819 -0.04291299 -0.15611605 -0.12198301 0.18358094 -0.18504307 -0.05951643
-0.08408408 0.12402014 -0.20396201 -0.17824544 -0.09299997 0.030489335 -0.09155699 0.17186396
0.02384694 -0.06051071 0.12191556 0.01475554 0.03740527 0.020891592 -0.078824975 0.091356345
-0.19555128 -0.13103285 0.16582042 -0.20288667 -0.11108729 0.29051217 -0.0030884736 0.11962649
-0.21665248 0.26036826 -0.17807019 -0.070966065 -0.08387908 -0.037021846 0.0027345717 0.14741908
0.031209707 0.120645724 0.19924189 -0.15805349 0.22101982 -0.17672402 -0.105956286 0.081258
0.06274906 0.10792923 -0.080478966 0.0004002154 0.58060056 -0.24177304 0.13393469 -0.2067306
0.0034456253 -0.04250419 -0.13166824 0.03304276 0.3486066 -0.073079884 -0.14842352 -0.09245971
00000000: 0054 f5ba 5e54 093e 16b3 52be 8066 3cbe
00000010: f432 c5bd ec4b 893d 404f a2bb cefa 4a3e
00000020: 70bf b5bc 4c7b 873d acbb 9abd 7048 49bd
00000030: b891 74be 528b 29be e80e d3bd 00bb 173c
00000040: 0fbf 8e3c f17d 283e b6f1 21be 0f52 2f3d
00000050: 4ea4 603d 2848 4f3e 9457 c9bd 8c96 a73e
00000060: a297 27be 6cf7 4d3e fa34 3d3e ce7b 6dbe
00000070: 5c00 46be 887e 843d efe8 44be d1fb b93e
00000080: 1aef 25be c0b0 ebbd 1ada 32be 76c2 6fbe
00000090: 0470 15be 1445 2b3e bc76 e43d ef43 113e
000000a0: 406a 573c 3a3f 03be c03e 2d3d 9e06 6fbe
000000b0: 1afa 38be c6f9 03be bff0 223e 8905 f93d
000000c0: c811 e3bd 20cb 13bc d839 ba3d e425 8b3e
000000d0: 4c12 c43d c855 0a3d 69e3 8a3e c0bb 16be
000000e0: f8d0 3e3d 6c7a 46be 186e 31be d23e 04be
000000f0: 0137 bf3d e2bb bc3d 6aa4 17be c8ad 9a3d
00000100: 430e b43d 203f 01bd 4064 1c3c 0044 6d3d
00000110: 9a58 293e 8b3b ba3e 9647 45be eca1 bbbd
00000120: 76b5 b53d f40c a13e c297 343e f283 773e
00000130: 78ca 4b3d f89c 5ebe 9066 bc3c ac27 20be
00000140: 8c94 6ebe f135 a73e 4536 ce3c fe5d 7fbe
00000150: 3f66 d73b 536c e2bd 4746 1c3e ea1e 2bbd
00000160: 5b31 253e 36a2 eebd 0e79 163e e1c4 b43d
00000170: d331 a83d 1b6f ed3d 4a5f 7dbe ad78 0abe
00000180: 5843 d23d b85e d53d d7ca e1bd 0be6 7a3c
00000190: e901 113e bdfd b03d a51e eebd 26c8 4b3e
000001a0: 78dd 73be 61cf f83d ff44 65be 321f 64be
000001b0: 4664 11be 8784 d23d bbcf 68be d8f8 5f3e
000001c0: bd7a 3abe fd76 ec3d 8c73 4a3e 64e1 57be
000001d0: 05d9 0e3c 04c8 d03d dda1 85bd 3434 9abd
000001e0: e402 d93c 9779 dbbd 7d66 2dbe c68d 263e
000001f0: 5691 75be 6183 30be 6db7 5d3d d844 06be
00000200: 5a1e 33be bad2 51be c0fe dc3d 4dcb 5d3e
00000210: 828c 34be a00c 983c 5ac4 113e 87b2 003e
00000220: 6c32 8bbd ea3a 183e df1e 673d 5711 9a3d
00000230: af23 063e cb08 983e f54e f93d 09ad 033e
00000240: 66f8 65be 40ba f2bd f5d2 c13d 006b d4ba
00000250: dc7c febd 022d 44be 0094 6fbe ec10 58be
00000260: 70b4 4fbd 170b b63d 444b 313e 02e5 76be
00000270: 5c92 9b3e 8a52 48be f07b 58bd 1c9a cfbd
00000280: f03c 45bd 100e 49bd bab8 65be 440a 5dbe
00000290: 283c 20bd 80e1 533b b896 e8bd 5497 373e
000002a0: 3a6a 66be c036 8abc 57c7 a83e 38d7 d0bd
000002b0: 7db8 0f3e 208a 0a3e ae07 67be caf9 313e
000002c0: 9e1a b5bd 708f e4bd bdf2 a43e 54df 4ebe
000002d0: 13b4 3f3d 7ba2 403c b6dd 6b3d f63a 4d3d
000002e0: de78 3b3d 2490 073e a0f5 b4bd 57ee b8bc
000002f0: 00f7 52be 1d86 033e d652 3e3e 8a5a 623e
00000300: 2a07 49be 7330 f1bd 88c5 2fbd e3dc 1fbe
00000310: 3ad2 f9bd a4fc 3b3e ee7b 3dbe 80c7 73bd
00000320: 4634 acbd 45fe fd3d 6bdb 50be f985 36be
00000330: c576 bebd c5c4 f93c 3b82 bbbd 1bfd 2f3e
00000340: a85a c33c 14da 77bd ddae f93d 38c1 713c
00000350: 4536 193d d824 ab3c fd6e a1bd 0919 bb3d
00000360: 983e 48be 7a2d 06be d4cc 293e 86c1 4fbe
00000370: bc81 e3bd 03be 943e fd67 4abb bcfe f43d
00000380: 26da 5dbe fd4e 853e 0858 36be a856 91bd
00000390: ccc8 abbd 38a4 17bd 8036 333b 07f5 163e
000003a0: 80ab ff3c 1b15 f73d 1106 4c3e c6d8 21be
000003b0: 0553 623e 24f7 34be 9cff d8bd 986a a63d
000003c0: 9482 803d 000a dd3d 28d2 a4bd 00d4 d139
000003d0: 3da2 143f 5a93 77be 2d26 093e 30b1 53be
000003e0: 00d0 613b e018 2ebd 0ad4 06be d857 073d
000003f0: 907c b23e e8aa 95bd 56fc 17be 845b bdbd

encoder.0.bias f4 [16]
-0.24778709 0.1872039 -0.16935883 -0.09735893 -0.09026619 0.21019146 0.22219525 0.12705174
0.17147298 -0.096498206 -0.019346653 0.08226215 0.13191037 0.10744028 -0.08544391 -0.07196846
00000000: e6bb 7dbe 61b2 3f3e 676c 2dbe 1e64 c7bd
00000010: 7bdd b8bd 6e3c 573e 2787 633e da19 023e
00000020: 9d96 2f3e daa0 c5bd df7c 9ebc 0f79 a83d
00000030: 8313 073e a609 dc3d 37fd aebd 3364 93bd

encoder.2.weight f4 [2, 16]
-0.23636726 -0.021360835 -0.101313636 -0.26761544 0.31261593 -0.23764409 -0.029044908 0.12875843
0.0037955125 -0.08274301 -0.227746 0.2772301 0.08515564 0.18369167 -0.14031082 0.09639537
-0.05716905 0.12577501 -0.09251051 0.13113989 0.13509248 0.04926991 0.09184398 -0.085699014
0.23427245 -0.24196659 0.12747 0.021552216 0.021786751 0.1288784 -0.037647247 -0.12219564
00000000: 420a 72be ebfc aebc 867d cfbd e404 89be
00000010: 320f a03e f958 73be 96ef edbc 40d9 033e
00000020: 22be 783b 2b75 a9bd 3f36 69be 1bf1 8d3e
00000030: 1566 ae3d ab19 3c3e a4ad 0fbe f06a c53d
00000040: 182a 6abd 2acb 003e 2676 bdbd 8949 063e
00000050: af55 0a3e 3fcf 493d b218 bc3d f782 afbd
00000060: 1ee5 6f3e 17c6 77be 7f87 023e 468e b03c
00000070: 217a b23c b3f8 033e 0034 1abd b541 fabd

encoder.2.bias f4 [2]
-0.014687459 -0.12084497
00000000: aba3 70bc 917d f7bd
