M=4/Dec_M=4_SNR=8.pth (torch, 1759 bytes, 4 tensors)

decoder.0.weight f4 [4, 2]
000000 30 17 b1 3f 55 24 e0 3f ad ef 78 be aa d1 c3 bf
       1.3835201 1.7511088 -0.24310179 -1.5298359
000010 ee 59 c7 bf 98 d4 03 bf 39 48 e5 bf 47 cb a8 3f
       -1.5574319 -0.5149627 -1.7912666 1.3187035

decoder.0.bias f4 [4]
000000 ac 2a c6 3f 77 6d db 3f 65 51 da 3e 45 b5 c1 3f
       1.5481772 1.7142781 0.42640224 1.5133444

decoder.2.weight f4 [4, 4]
000000 39 f4 4b 3f 5d 68 d7 bf db e1 0c bf b6 ea c6 3f
       0.7966953 -1.6828724 -0.5503213 1.5540378
000010 91 09 61 bf 6e 6a ce 3f 6b ff 94 bf e4 b6 d6 bf
       -0.8790522 1.612623 -1.1640447 -1.6774564
000020 40 c5 93 bf 41 28 a3 bd 16 38 8e 3f c2 19 66 3f
       -1.1544571 -0.07966662 1.1110866 0.89883053
000030 56 2f dd 3f 4b 74 47 bf a9 e1 72 bf ab 0c 03 c0
       1.7280071 -0.77911824 -0.9487558 -2.0476482

decoder.2.bias f4 [4]
000000 f2 c0 96 bf 34 a9 88 3f a8 87 22 bf f9 21 bc 3f
       -1.1777632 1.0676637 -0.63488245 1.4697868
