M=4/Enc_M=4_SNR=8.pth (torch, 1759 bytes, 4 tensors)

encoder.0.weight f4 [4, 4]
00000000: ff70 34be db26 993e 16b3 d2be 8066 bcbe
00000010: 3382 8a3e 6b26 fe3d d2ae afbe c556 0140
00000020: 70bf 35bd 4c7b 073e acbb 1abe 7048 c9bd
00000030: b891 f4be 528b a9be e80e 53be 00bb 973c
-0.1762123 0.29912457 -0.41152257 -0.3679695 0.2705246 0.124096714 -0.34313065 2.020921
-0.044372022 0.13230628 -0.15110654 -0.098282695 -0.47767425 -0.33114105 -0.20611155 0.018521786

encoder.0.bias f4 [4]
00000000: c5a3 2e3e cc60 af3e 8c8d adbe fcf4 5ebe
0.1705466 0.34253538 -0.33897054 -0.21773142

encoder.2.weight f4 [2, 4]
00000000: 08ad 393e 36db e73e 48bd d2bd 5c91 bf3e
00000010: 8034 d1bd c864 043e 4acd e73e ce7b edbe
0.18132412 0.45284432 -0.10290009 0.37415588 -0.10215092 0.1292907 0.4527381 -0.46383518

encoder.2.bias f4 [2]
00000000: 3354 8fbe 82df 8fbd
-0.27993926 -0.070250526
